crowd_counting.pth (torch, 584242 bytes, 31 tensors)

column1.0.weight f4 [8, 3, 9, 9]
00000000: a14d ef3c fcc5 1f3c 3909 473d 7bf2 47bb
00000010: e614 fdbc 071f 7bbd d6c6 5a3d 5534 fc3b
00000020: da44 52bd 55b7 e4bc f37b 5dbd c06c e9bc
00000030: cc97 66bd 789f 6ebd 6174 603d 60e2 523d
00000040: 7118 413d e95b 83bd 0037 1b3d 08ce 03bd
00000050: 0f36 a5bc d3e7 6dbd a95f 82bc 2717 203b
00000060: 50d2 9abc 0286 943c 7358 df3c 4833 1dbd
00000070: a542 1abd d83d 523d a4a3 113d 9e86 493d
00000080: 2e9d 80bd 68a6 82bd 6f46 5b3d 14d3 d2bc
00000090: 28e5 8d3a 200c 5dbd 37c6 9b3c 40ad 4fbb
000000a0: 7067 493d 2851 45bc 85e7 303d 803a 6d3d
000000b0: ee33 14bd 1c7d cf3c 282c 0fbd ce1b 6dbd
000000c0: e565 70bc 504b dbbc 5c82 b4bc fcdb e43c
000000d0: 9414 633d 2414 5abb e5d8 ea3b d86f 0b3d
000000e0: 6c0c 853c de8c f43b 05db 46bd f947 37bc
000000f0: cd4f 65bd f55e 283d 30b9 8ebc b025 703d
00000100: 037c 02bd 7f26 cebc 6527 343d 9fc7 42bd
00000110: 4100 27bb a766 8cbc 0a54 023c 045d 6c3d
00000120: 81a9 a03c e10c 583d 6d16 453c c730 013d
00000130: 22f0 aabc 235d d9bc 95b6 133c ddb2 26bd
00000140: e86a 39bc 7efc 11bd 612e b9bc 3e9f 373d
00000150: bd0e 7d3d e2b6 6a3d d5ee 86bb 4265 7bbb
00000160: fae2 a73b 8994 fd3b 8829 eebc 39e1 323d
00000170: afb6 3b3d 7a7c 83bc 93d2 b2bc 1b79 36bd
00000180: 1082 543d d107 1a3d e76c d13c 1d21 4a3d
00000190: b234 973c 8313 81bd 468c 723c 314a 27bd
000001a0: b523 cbbc e65d 9fbc 3382 42bc 78ba 5ebc
000001b0: 4465 5abc b2d5 a6bc 66b6 35bd 8da6 7fbc
000001c0: 8dd6 4b3d 6c69 513d 68ae cd3a faa3 0fbd
000001d0: e8d3 45bd 5da4 6cbd bcb1 ea3c 04e9 5c3b
000001e0: c20b 7f3d 0b07 20bd 44d2 55bd 5804 97bb
000001f0: d4d9 10bd dd54 8aba 45b3 57bd 1ca8 133c
00000200: 3475 4fbd 397d 7a3d 6094 f4bc 0daf ccbc
00000210: 666c 40bd 9a99 50bd 7996 673d 3523 2cba
00000220: 6b07 033d c94c 85bb f6d8 6d3d 1cb6 6a3d
00000230: e670 acbc 21d2 1ebc 31cf b1bc 9c5d e1bb
00000240: e4df 17bd eb66 063d 7292 8f3c 7a8f 903c
00000250: 2965 c4bc 49af 3e3d 26c6 1fbd 6ed9 723d
00000260: 7946 afbc e363 70bc 2bcc 443c a1a1 733d
00000270: c657 04bc 21ff 753d 4859 963b f8c2 4ebd
00000280: 1bd2 683b 0b47 cc3c 52e8 3b3d 3247 513d
00000290: 4ccb 013c a40f 43bd a7a4 bcbc 0c50 fd3c
000002a0: 0337 aabc a1d1 273c ed2e 64bd e57f 483d
000002b0: 8ac0 a0bc 5145 623d 08dc fd3c 1319 4cbd
000002c0: f64e 753c 4cd5 693c 8c14 1e3d 7016 e9bc
000002d0: ec5f 59bd 95d6 f43c de79 15bd 0e15 00bd
000002e0: ba05 5f3c 5775 a1bb 3f96 33bd 7e6b 1f3c
000002f0: b426 3ebc 603f 6a3d 25fb ba3c 3ff2 59bd
00000300: 39c0 a5bc df57 45bc f47f 693d d721 fcbc
00000310: 8f52 463d b667 cfbc effd c9bc 2baa 133d
00000320: e266 dabc 746c 6a3c 2c2a c2bc 65b6 0e3d
00000330: f180 433d 1335 2d3d b6ef 54bc af57 dc3c
00000340: 5952 2f3c 0931 5b3d 653a 39bd 7186 0b3d
00000350: f65c f43c 56fe 003a feb5 6d3d 1e89 31bd
00000360: 3b83 50bc ae1f 193d 0e91 5b3c e77c 573b
00000370: 8493 a8bc dfcd 163d fa7e e5bb 1443 1fbc
00000380: 6187 6b3d 43ac 70bc 4e29 793d 7133 473c
00000390: 2ed4 2cbb 7204 1c3b 89ab a53b 3950 473c
000003a0: 10b0 a3bc 86a2 3a3d b0cd 26bd 4fc3 eb3b
000003b0: a72d 9ebc 9f93 553d 4588 e5bc 543f 0a3d
000003c0: a840 503b d45b 7f3d ecb7 02bd 15bf b8bc
000003d0: b4ee ba3c 2efd 86bc 65ec 34bd 4cd0 39bc
000003e0: 6432 2e3d aebb 3d3d 2c7b 34bd ce07 653d
000003f0: bf2d 3cbc fdd3 39bd dacc 98bc 1940 91bc
0.029211821 0.009751793 0.04859278 -0.003050952 -0.030893754 -0.061308887 0.05341228 0.007696668
-0.051335193 -0.02791945 -0.054073285 -0.028494239 -0.05629711 -0.05825755 0.054798488 0.05148542
0.04714245 -0.06414015 0.03789425 -0.03217891 -0.020167379 -0.058082413 -0.015914755 0.0024427862
-0.018899113 0.018130306 0.027263856 -0.038378984 -0.037661213 0.05132851 0.03555645 0.049200647
-0.0627998 -0.06379396 0.053533968 -0.025735416 0.001082574 -0.05396664 0.019015415 -0.0031688958
0.04917091 -0.012043275 0.043189544 0.057917118 -0.036182337 0.025328211 -0.03495422 -0.057887845
-0.014672731 -0.02676931 -0.022034816 0.027936928 0.055439547 -0.0033276165 0.007166969 0.03404221
0.016241275 0.0074630817 -0.048548717 -0.011186593 -0.055984307 0.041106183 -0.017422289 0.05862969
-0.031856548 -0.02516484 0.043982882 -0.047553655 -0.002548233 -0.017138792 0.007954607 0.057705894
0.019612076 0.052746657 0.0120292725 0.03154066 -0.020866457 -0.026533669 0.009015699 -0.04069792
-0.011316992 -0.035641186 -0.022605123 0.0448296 0.061781634 0.057303317 -0.0041178265 -0.0038359915
0.0051234933 0.007738654 -0.029072538 0.04367182 0.045828518 -0.016050566 -0.021828925 -0.04454909
0.05188185 0.03760511 0.025564624 0.049347986 0.018457744 -0.0630255 0.014803952 -0.04084224
-0.0247973 -0.019453954 -0.011871862 -0.013594262 -0.013329808 -0.02036557 -0.0443634 -0.015603674
0.04976516 0.05112593 0.0015692236 -0.03506849 -0.048297793 -0.057773937 0.028649203 0.0033708224
0.062267072 -0.039069217 -0.052202478 -0.004608672 -0.035363987 -0.0010553856 -0.0526612 0.009012248
-0.050648883 0.061154578 -0.029855907 -0.024985814 -0.046978377 -0.050927736 0.056539986 -0.00065665256
0.031989496 -0.0040679914 0.05806824 0.05730258 -0.021049928 -0.009693653 -0.021705242 -0.006877614
-0.037078753 0.032812994 0.017525885 0.01764654 -0.023974018 0.046553884 -0.03900733 0.05928939
-0.021395909 -0.014672252 0.012011568 0.059480313 -0.008077567 0.060057763 0.00458828 -0.050478905
0.0035525623 0.02493622 0.045875855 0.051093288 0.007922005 -0.047622338 -0.023027731 0.030921958
-0.020778185 0.0102428505 -0.055708814 0.048950095 -0.01962306 0.055241887 0.030988708 -0.0498286
0.014972439 0.014272045 0.038593814 -0.028453082 -0.053069994 0.029887477 -0.036493175 -0.03127008
0.013612205 -0.004927318 -0.043844458 0.009730218 -0.011605907 0.057189345 0.022824833 -0.05320954
-0.02023326 -0.012044876 0.05700679 -0.030777855 0.048418578 -0.025318008 -0.024657218 0.036050957
-0.026660386 0.014308084 -0.02370175 0.034841914 0.04773039 0.042286944 -0.012996605 0.02689728
0.010700786 0.05351356 -0.045221705 0.03406376 0.029829483 0.00049207115 0.05803489 -0.043343656
-0.0127266 0.037383728 0.013401283 0.0032880844 -0.020578153 0.036817428 -0.007003662 -0.0097205825
0.057502154 -0.014689508 0.060830407 0.012158261 -0.0026371586 0.002380636 0.005055849 0.012165123
-0.019981414 0.04556515 -0.040723503 0.0071949135 -0.019308878 0.052142736 -0.02801908 0.0337518
0.003177682 0.062343433 -0.031913683 -0.022552053 0.0228189 -0.016478147 -0.044170756 -0.011341166
0.042528525 0.046321563 -0.04406278 0.055915646 -0.011485516 -0.045368183 -0.018652368 -0.01773076

column1.0.bias f4 [8]
00000000: 88b3 46bd 5870 6a3c da41 61bd 66a7 01bb
00000010: aea8 28bd bd08 86bd 873f 61bd 470f d7bc
-0.048511058 0.014309011 -0.05499444 -0.0019783615 -0.04117649 -0.065446354 -0.054992225 -0.026252402

column1.3.weight f4 [16, 8, 7, 7]
00000000: d23d c2bc b4db 50bd 4201 bc3c 2803 123d
00000010: cc29 bebb 2314 2e3d 2295 063d fa35 203d
00000020: 00c8 d3bc 9089 073c 2091 333c 5b2f 48bc
00000030: 0e99 163d c986 473c 0cea 1abd f6c1 373d
00000040: b3b2 9cbc 372f 19bd dee0 e2bb 1dcb efb9
00000050: 12e5 033d c75f 7bbc 02a4 5b3c 442a a23c
00000060: 21ca 67bc eb7b 023d 6616 9dbb cf81 0dbd
00000070: bd84 023d cd3d 18bd d0a2 0b3d 54a8 4ebc
00000080: c056 063c 457b 04bd 6fc8 f6bc 9743 c5bb
00000090: 1aeb b03c a3cc 9cbc f8bc 05bd ccdc ddbb
000000a0: cccf 50bc 25bb 8cbc a2b0 053d df22 223d
000000b0: abcb 5abd 8302 23bd 1277 37bd dca7 13bd
000000c0: b5ce 0d3c 2423 c23c 0d71 68bc baea 24bb
000000d0: 7fdf aabc e90f 13bd f230 99bc 8daa 983b
000000e0: 873d 9ebc 70b1 07bd 62cb 123c 2796 a93c
000000f0: dfc0 6b3c 7c55 60bd c950 82bc 5507 74bb
00000100: eebf a43c 148a 68bd 8be6 edbc 01a1 48bd
00000110: 9b8b d0bc 5360 e7bc 5a8f 1dbd 4d24 5ebd
00000120: b6aa 60bd 9b3b 1d3c e9d4 c13c dee1 d0bc
00000130: 7da9 bfbc 6861 9abc 1b65 61bd 0719 63bd
00000140: 8a2d 28bd 0ecb eb3c 0c0f 1eba f9c2 ea3b
00000150: b543 40bd 18b9 a8bc 2687 2b3d acec c03c
00000160: 4a7c 5fbd 6050 a43c 692d a9bc f358 313d
00000170: ddf0 01bd 1ac7 193c 23fd 55bd d603 4dbd
00000180: 7f21 f63a 62b3 22bd 0f35 463d c2c6 21bb
00000190: 2566 c03c 5b2e ea3c 02e4 53bd 34c2 93bc
000001a0: 4303 ee3b 695c 36bd 6284 a03c a99f 1a3d
000001b0: 41d5 303d 919a 28bd 691b 233d 7d55 ee3c
000001c0: 31a2 4ebd 0329 1bbd 09ff 28bd 855d d23c
000001d0: bbf9 113a e0c9 063c 625e 40ba 328b 123d
000001e0: a1d8 a4bc 2da5 2f3d 18ac 3c3d 35af 0c3d
000001f0: c144 50bb fbfb 19bd 7a91 51bd b1b1 323d
00000200: c03f 403d f250 303c 2c0f 1e3d 0134 dc3c
00000210: 1c66 1a3b 6f40 233d ee34 a1bc 672b 2ebd
00000220: a39f cdbc c818 23bd c754 ff3c 7e27 763c
00000230: 61c0 2dbd aa45 36bd a755 023d bb20 4bbd
00000240: 8d83 ab3c ff38 06bd 9900 f63c 22f6 7dbc
00000250: cfad 29bd a6e7 57bd 5dc4 bebc 6f48 c4bc
00000260: 8a5a 5c3c 4e28 1bbc 0369 37bc 0f5e 1bbd
00000270: 38f8 a63c bad5 233d e8a9 e8ba c361 b5bc
00000280: 44bb 5ebd e533 1b3d 8927 ed3c 1c7a 2fbd
00000290: c6ca b53c 4b47 ccbc c78d da3c da82 493c
000002a0: 1694 66bc e76b 463c 6238 24bb 7212 723b
000002b0: 8161 66bc 2368 133d b66a 47bc 721d 60bc
000002c0: ab83 823b 66c3 2fbd aa22 2d3d f7d6 e03c
000002d0: aafd b3bc 8b17 03bd 6c7b 193d 050a f23c
000002e0: b486 5ebd bd5c 483c fb76 003d ceac 0e3c
000002f0: e449 9abc f869 52bd 33ec 243d 3102 58bc
00000300: 9fe8 1f3c 71ff 313c d4c7 f6bc 6978 873c
00000310: c14a 213c 3f33 a53c 7dd4 9d3c e7a4 09bc
00000320: eb24 163d 501c 91bc d138 093d 16a8 d23c
00000330: 0e54 9c3c af44 22bd 1de4 51bd 8e7b d8bb
00000340: 22eb 0dbd 3e5a b83c 8082 043d 9630 bf3c
00000350: 6b33 3abd db21 69bc b047 dabc 752e 0ebd
00000360: 3aad 0dbd 33f9 3abd 8f17 b33c d2c8 fdbc
00000370: 325b 243d c56d 813b 4e22 1dbb 4138 41bd
00000380: 2d82 13bd 50d9 133d 726a 1f3d 9b36 c9bb
00000390: 9bf6 20bd be3a 043d 6976 f9bc 5909 71bc
000003a0: 41fb 823b ecb0 b8bc 0269 25bd a429 b43c
000003b0: 73f5 11bd 98e5 2bbd cbee 2c3d 1bbd d53a
000003c0: d572 833c e79c 5fbc 8e40 2a3d 0c5f ee3c
000003d0: 0ae9 e33c 2da6 41bd 969e cb3b bab5 f8bc
000003e0: 3523 383d e7f5 7bbc 5b6e 003c 0905 313c
000003f0: 6b1c be3c 4fc3 82bc 1f37 ae3c ca0e 47bd
-0.023711119 -0.050990775 0.022949819 0.03564754 -0.0058033224 0.042499673 0.032857068 0.039113976
-0.025852203 0.008272544 0.010959893 -0.012218322 0.036767058 0.012178131 -0.03782086 0.04486271
-0.01912818 -0.037398543 -0.006923779 -0.00045736964 0.03220088 -0.015342659 0.013405802 0.019795544
-0.014147312 0.03185646 -0.00479393 -0.034547623 0.03186487 -0.037168313 0.034090817 -0.012613375
0.008199394 -0.03234412 -0.030124871 -0.00602002 0.02159648 -0.019140547 -0.032650918 -0.006770706
-0.012744855 -0.017179081 0.032639153 0.039584037 -0.05341689 -0.039797317 -0.04479129 -0.036048755
0.00865524 0.023698397 -0.01418711 -0.0025164322 -0.020858524 -0.035903845 -0.018700097 0.004659003
-0.019316448 -0.033128202 0.008959623 0.020701481 0.014389246 -0.054769024 -0.015907662 -0.0037235816
0.02011105 -0.056772307 -0.029040596 -0.04898167 -0.025457194 -0.028244173 -0.03846679 -0.054233838
-0.054850303 0.009596731 0.023661094 -0.025498327 -0.023396248 -0.018845275 -0.055028062 -0.05544379
-0.041059054 0.028783347 -0.0006029464 0.007164356 -0.04693957 -0.020596072 0.041876934 0.023550354
-0.05456189 0.020057857 -0.020651536 0.04329772 -0.031723846 0.009385848 -0.052243363 -0.050052486
0.0018778293 -0.039721854 0.048390444 -0.002468512 0.023486206 0.028586557 -0.051731117 -0.01803694
0.0072635724 -0.044521723 0.019594375 0.03774992 0.043172125 -0.04116303 0.039821062 0.029093498
-0.050447647 -0.03788091 -0.041258845 0.02567936 0.0005568524 0.008226842 -0.0007338283 0.03577728
-0.020122828 0.042882133 0.04606256 0.034346778 -0.0031779262 -0.037593823 -0.051164128 0.04362649
0.046935797 0.010761486 0.038588688 0.026880266 0.0023559397 0.03985637 -0.01967856 -0.04252186
-0.025100535 -0.039818555 0.031168355 0.015024064 -0.042419795 -0.04450003 0.031819966 -0.04959176
0.020936752 -0.0327692 0.030029582 -0.015500577 -0.041425522 -0.05271115 -0.023286993 -0.02396032
0.013449321 -0.009470059 -0.01119447 -0.0379315 0.020382032 0.039998747 -0.0017750831 -0.022141343
-0.05437781 0.037891287 0.028949516 -0.042841062 0.022191416 -0.024936339 0.026678933 0.012299264
-0.014073392 0.012110687 -0.002505802 0.0036937264 -0.014061333 0.035987984 -0.012171438 -0.013678895
0.003982981 -0.042910956 0.042269386 0.027446253 -0.021971542 -0.032004874 0.03747122 0.029545793
-0.05432768 0.012229142 0.03136347 0.008708192 -0.018834062 -0.05137059 0.04026432 -0.013184116
0.009760051 0.010864125 -0.030124582 0.016536908 0.009844483 0.020166038 0.019266361 -0.008401132
0.0366563 -0.017713696 0.03350145 0.025714915 0.01908305 -0.039616283 -0.051242936 -0.0066065257
-0.03464807 0.022503968 0.032351017 0.023338597 -0.045459192 -0.014229263 -0.026645511 -0.034712274
-0.03458903 -0.04564781 0.02186182 -0.030979548 0.040126033 0.003949853 -0.0023976746 -0.04717279
-0.036012817 0.036095917 0.038919874 -0.0061405427 -0.03929768 0.032282583 -0.03045197 -0.014711701
0.003997237 -0.0225453 -0.040383346 0.021992512 -0.03563447 -0.041967005 0.04221992 0.0016306968
0.016045967 -0.013648248 0.04156547 0.029098056 0.027821083 -0.04727762 0.0062139733 -0.030360091
0.04495545 -0.015378452 0.007838811 0.010804423 0.02320691 -0.015962271 0.021266518 -0.04859809

column1.3.bias f4 [16]
00000000: eea8 d3bc d133 283d 83e8 c1bc 1261 8a3c
00000010: 76f7 47bd bd60 273d 4e60 94ba aad4 2cbc
00000020: 04ff a63b 5012 333c 4329 753a d49c afbc
00000030: 6a81 d3bc accc 143d 1b9a 6dbd 09bf 9d3b
-0.025837388 0.04106504 -0.02367044 0.01689199 -0.04881998 0.04086374 -0.0011320205 -0.01054875
0.005096318 0.010929659 0.0009352157 -0.021437086 -0.025818545 0.036328003 -0.058008295 0.004814033

column1.6.weight f4 [32, 16, 7, 7]
00000000: 92b8 963c 6dc0 8b3c cb54 103d 2251 d73c
00000010: 55eb 74bb 4de2 0c3d 7b3d 893c edb7 7f3c
00000020: b8d7 07bc 7af6 77bb d88d 8d3b d8c7 89ba
00000030: a841 133c efff 0b3c 573d ecbc 7c16 7b3c
00000040: fdd5 bcbc 24f6 9b3b e350 9d3c 2a26 3e3c
00000050: e9af 09bd 133e 1e3c 0473 623c 86b7 983c
00000060: cc07 68bc 2280 5bbc d5d6 073d 0a07 043c
00000070: 32e2 0d3d cacc 043d dd8f 58bc 8e7c b93c
00000080: 9e17 07bd 9a21 b53c 64a2 f1bc 12b1 9e3c
00000090: 1cb4 833c 3e8a f93c 409e e83a 0258 133d
000000a0: a1f1 023d 98dc f63c be88 9dbc 1ff6 9ebc
000000b0: d8ea 20bc 2f33 8abc 1774 84bc ab1d 163c
000000c0: 4c58 64bc 692d edbc 6ebe c9bc 23f8 5ebc
000000d0: b2d3 d8bc d049 923c 1e9d 48bc d8bc cfbc
000000e0: 99b5 8e3c 5163 c0bb d565 f03c 6be3 33bc
000000f0: 96c2 13bb 9494 99bc e312 713c b7f1 48bc
00000100: e623 9fba 0b11 dd3c 87f4 dc3c aeb1 ce3b
00000110: 87a5 0dbd 6623 ddbc 6c56 0bbd 3716 84bc
00000120: b112 0fbc c8b3 9b3c e429 05bd dbd5 dfbc
00000130: f729 09bd 8396 8d3c bae7 ac3c 4043 06bd
00000140: 76b0 1fbd 1047 623c 17b4 67bc 4e5c 2d3c
00000150: b5fa 23bc 72b7 6b3b 75c1 93bc 3483 d5bb
00000160: 6fce 3c3b ad72 fc3c e156 f23b 1328 99bc
00000170: 1aba a9bc e77f 8c3c 7b4c da3b 29a7 223c
00000180: 342c 3dbc 0f9c b83c f0f5 3b3c 0066 483b
00000190: 545f 083c d79e 68bc b1b9 0fbd 36e2 26bc
000001a0: efee f33a c650 debc a8e7 7fbc 714c 773c
000001b0: c716 d2bc 24ba c23a 435c 503c e169 f8bc
000001c0: e23c b43c 902c 40bc 2650 e23c a6bb abbc
000001d0: f430 20bc a386 2cbc 58de c2bc 246a d63c
000001e0: 180a 6abc cde4 0fbd 66cc 05bb e6f1 d8bb
000001f0: 1dcf 06bc 74f0 0fbd 9edc b7bb cc2f 97bc
00000200: 7885 e23a 93b8 d7bc 0c0d 6bbc 73d6 0fbd
00000210: faf7 13bd 789e d43c e040 05bc 6cbb 15bd
00000220: fcc1 9bbc fe9f 963c e09c a6bc 3f26 0b3c
00000230: 8423 c33c 37af 853c 819d 40bc 9219 993c
00000240: 6909 35bc a31b ea3b 2aef 3c39 3653 b8bc
00000250: 8a8e d1ba 0cb7 df3c e645 a43c ecce 43bc
00000260: 9d18 b63b 3d23 aa3c ca27 9f3c ffe4 98bc
00000270: 3202 bcbc dd56 e03c d5da 12bd a52b 1fbd
00000280: 88c2 52bc 9467 db3c 9803 e53c e5b2 11bd
00000290: e51d 9a3c 26e8 1cbc 0b48 663b fefa cabc
000002a0: c138 8d3c a2ca eabc 6d3a 2a3c fff0 c6bc
000002b0: 5d97 00bd dbd8 fcbc 4841 bfbc 0948 a63b
000002c0: 11ac 92bc 0431 a0bc 790b 0cbc aeaa 57bc
000002d0: a751 3f3b 316a ba3c fb60 b0bc cd54 17bd
000002e0: 097f 8f3b 4daf 5c3c 84c5 bf3c 6f3f 7cba
000002f0: c9f4 9a3c b67f d9bc 31dd cabc fdeb 873c
00000300: f0b1 1fbd 8cf4 e5bc 0f9a 1fbd 5a87 cdbc
00000310: c3da ce3b 8398 a9bc dc8b a2bb 8ec3 23bd
00000320: 7dcf a6bc 53b9 b63b 63d2 44bc cb0d 7dbc
00000330: 4a5f 5e3c 49cc ce3c 4355 88bc 72fb 0bbc
00000340: c736 8ebc 9607 003c a987 9abb 9384 393c
00000350: 17da 44bb 1ff9 233c 4e62 dfb9 2a7e 91bc
00000360: 3d22 1dbd c7a2 293b 9ac0 bc3c c095 8fbc
00000370: 3c17 933c 1b8b 733c d812 e5bc 7df7 c53c
00000380: bb4f 873b f74c fa3b 185b f43c bc7e dc3c
00000390: 80dc ef3c 0556 68bb 216c bd3c 5e2b 0b3c
000003a0: 2ed3 09bd 3fdf 853c d3f1 b13c 1474 12bd
000003b0: 03ea 95bc b27f a2bc 3f45 14bd f400 293c
000003c0: 87df b8bb e5ba 84bc d0d2 a93c a52e 15bd
000003d0: 8cb4 023b 160d 983c f41e 153c b104 ae3c
000003e0: bb6a 123b 9cf5 ce3c ba7e 5c3c 4cbe 10bc
000003f0: 1b4b dcbc fe37 2d3c 48a9 d8bc a13d 4a3c
0.018398557 0.01705953 0.035237115 0.026283804 -0.0037371714 0.034395505 0.016752949 0.015607816
-0.008291177 -0.003783612 0.0043198876 -0.0010511829 0.008987822 0.008544906 -0.028837843 0.015325185
-0.023051256 0.004759567 0.019203609 0.011605779 -0.033615027 0.009658354 0.013821367 0.018642198
-0.014162015 -0.013397248 0.033163864 0.008058319 0.034639545 0.032421865 -0.013217893 0.0226424
-0.032981507 0.022110749 -0.02949638 0.019371543 0.016077094 0.030461427 0.0017747357 0.035972603
0.031968717 0.030134484 -0.019230243 -0.019404469 -0.009821616 -0.01687011 -0.016168637 0.009162347
-0.013937067 -0.028952317 -0.024626937 -0.013608965 -0.026468132 0.017857462 -0.012244491 -0.025358602
0.017420577 -0.0058712144 0.029345432 -0.010979514 -0.0022546402 -0.018747605 0.014713976 -0.012264661
-0.0012141436 0.026985666 0.026972068 0.006307802 -0.034581687 -0.026994418 -0.034017965 -0.016123874
-0.008732484 0.019006625 -0.032510653 -0.027323654 -0.033487286 0.017283684 0.02110659 -0.03277898
-0.038986646 0.013810888 -0.014142058 0.010581089 -0.010008504 0.0035967496 -0.018036583 -0.006515885
0.0028809567 0.0308164 0.0073956107 -0.018695867 -0.020718623 0.017150832 0.006661949 0.009927549
-0.011546183 0.022535352 0.01147221 0.0030578375 0.008323509 -0.014198027 -0.0350892 -0.010185769
0.0018610636 -0.027138125 -0.015619196 0.015093909 -0.025645627 0.00148565 0.012717309 -0.030323924
0.022001687 -0.0117293745 0.027626108 -0.020963501 -0.009777296 -0.010530147 -0.023787662 0.026173659
-0.014284633 -0.03513031 -0.002041602 -0.0066206334 -0.008228091 -0.035141423 -0.0056110164 -0.018455409
0.0017282208 -0.026333129 -0.014346372 -0.035116624 -0.03612516 0.02595447 -0.008133143 -0.036555693
-0.019013397 0.018386837 -0.020338476 0.008493005 0.023820646 0.0163189 -0.011756302 0.01868895
-0.011049607 0.007144408 0.00018018173 -0.022500616 -0.0015987915 0.027308963 0.020052861 -0.0119511895
0.0055571334 0.020768756 0.019428153 -0.018663881 -0.022950266 0.02738517 -0.035853226 -0.038859982
-0.012863763 0.026782788 0.027955815 -0.035570998 0.018813083 -0.009576833 0.0035138156 -0.024777886
0.017238976 -0.028661076 0.010389906 -0.024284838 -0.03139435 -0.030865123 -0.023346558 0.005074505
-0.017904313 -0.019554622 -0.008547657 -0.013163252 0.0029192956 0.022755714 -0.021530619 -0.036946107
0.0043791574 0.013469529 0.023409612 -0.00096224895 0.01891555 -0.026550155 -0.024763675 0.01659202
-0.038988054 -0.02807071 -0.03896528 -0.025088955 0.0063126995 -0.020702606 -0.00496052 -0.039981417
-0.02036261 0.0055762916 -0.012013051 -0.015445183 0.013572523 0.025243895 -0.016642218 -0.008543836
-0.017360104 0.007814309 -0.004715879 0.011323112 -0.0030037218 0.010008126 -0.00042607117 -0.017760355
-0.03836273 0.0025884376 0.023041058 -0.017527461 0.017955415 0.014864708 -0.027963087 0.024165863
0.0041293777 0.0076385695 0.029828593 0.0269159 0.029279947 -0.0035451662 0.023122849 0.008494226
-0.033648662 0.016341804 0.021721756 -0.035755232 -0.018300062 -0.01983628 -0.03619885 0.010315169
-0.005641881 -0.0162024 0.020730406 -0.036421437 0.001994404 0.018560927 0.009101618 0.021242471
0.0022341448 0.0252636 0.013457948 -0.008834433 -0.026891282 0.010572432 -0.026447907 0.012343795

column1.6.bias f4 [32]
00000000: 960b 7c3c cb31 053d 06e6 933c 99b9 15bd
00000010: 6b5f e73b 7f92 aa3c f9a7 e6bb 4afd 04bd
00000020: 6d88 8e3c 9b77 6dbc 11a0 043c 5fdf 7fbc
00000030: af83 a0bc 9e6f 8239 d1a5 30bc 6138 063d
00000040: 6b16 cd3a 7526 a1bc f1b5 b93a 41b1 20bd
00000050: 77d6 c13b 9ae7 76bb bda2 13bd d5f5 e4bc
00000060: 9954 6c3c dca1 e03b 09ff dc3c 3105 94bc
00000070: 2235 193b e847 0dbd 4ffe 0ebc 8425 27bd
0.015383622 0.03251819 0.01805402 -0.036553953 0.0070609353 0.020821808 -0.007039067 -0.032468118
0.017399037 -0.014493848 0.008094803 -0.015617221 -0.019594042 0.00024878694 -0.010781721 0.03276861
0.001564694 -0.019671658 0.0014168603 -0.039231542 0.005915459 -0.0037674666 -0.03604387 -0.027949253
0.0144244665 0.0068552326 0.026977079 -0.018068882 0.0023377617 -0.034492403 -0.008727624 -0.040807262

column1.8.weight f4 [16, 32, 7, 7]
00000000: b693 943a d32e f5bb 4f2d 1fbc bf5e bcbc
00000010: 924c 1db9 f67e 923c 48d2 243c 7088 103c
00000020: 3070 1ebc 5a11 12bc bf2b ad3c 3588 f83b
00000030: b21c 81bc 623c a2bc 8e67 933c 1462 a63c
00000040: aad1 b83b f134 943c 5d96 923c e3c9 00bb
00000050: 01b7 a5b9 1e39 933c e1d2 a43c 39a7 b43c
00000060: b4c5 54bc d178 ad3c ecc0 f73b 3c9d d1bc
00000070: ce5b 84bc f235 743c 6405 b3ba bcfe 9ebc
00000080: 5166 863c 930f d6bc b29c 70bb 02d9 3f3c
00000090: 251d d2bc 992f d2bc 14f8 04bc da0f 743a
000000a0: 80b0 973c 7ff6 c6bc 380f deba 8b5c 8c3c
000000b0: 729d 13bc 370e bdbc 26f9 293c 3035 9ebb
000000c0: 6b4a af3c d00f b2bc 17bd c3bc e307 0e3a
000000d0: 7a15 21bc 6b73 94bc ce1e 903c d28a 983c
000000e0: e572 42b9 121b 9cbc ac64 d8bc 490d 18ba
000000f0: 9c63 f73b 6cc7 36bc 66f6 713c a6a9 35bc
00000100: d8a9 c5bb f1d2 85bc 804d 44ba 1d15 91bc
00000110: 549e 2a3c 019a 323c 8f5d 903c cae1 13bc
00000120: 7b23 70bc 46dd e0bc 4cc0 8ebc e724 983c
00000130: c295 253c ca2b e6bc 7790 8c3c c839 c3bc
00000140: b99e e6bb a63b 48bc fb84 5cbb 6c46 4e39
00000150: b602 b6bc 26c9 303c 0cd3 febb 2470 69bb
00000160: f0af 9dbc 1f9d bfbc c5d3 7a3a 8f59 4f3c
00000170: 2989 6ebc 678a 7d3c ac2e 293b 74ef 3fbc
00000180: aad5 5d3b f073 8c3b 2e77 b2bc ee26 8abc
00000190: 0e08 0d3c 933b 8ebc 8a9a eebc 0343 00bc
000001a0: 1c22 6cbc d31a 7f3c 701b ddbc f753 f3bc
000001b0: d06e a9bc e601 1a3c 3e1a 69bc a318 7e3c
000001c0: 98da 43bb f2f0 43bc 4deb 6bbb 2b21 af3b
000001d0: 6ed0 3dbb 54eb 453c 2009 b5bc 9f24 c03b
000001e0: 9b5c 1bbc d423 4cbc d145 fabb 8b4c 4bbc
000001f0: f6da d03a 6b24 3f3c b128 bd3b b7d5 303b
00000200: 94b9 c33b 105f 80bc a078 19bc b043 553c
00000210: 4fdf e3bc 80fb 88bc 170e 7a3c b65d b3bc
00000220: 23fa 10bc 9d21 963c 55e8 93bc 9633 aabc
00000230: 8949 53bb 4ce2 9e3c fb9c 963b 970f 82bb
00000240: 1ca2 553c ba76 bbbc 44a6 2b3c 30d4 e4bb
00000250: 2a91 43b9 3f6b 27bc 3c8b 3ebc d4ba 68ba
00000260: 8bfd a33c ae7e f43c dd88 abbb 0a28 023c
00000270: 6078 d638 8673 16bb 0974 a83c 30dd 54bc
00000280: 7c6a cd3b 1223 37bc d5eb 0dbc cb3b a93c
00000290: c4ab 94bc e7fb 67bc 11ee e93c 1995 993c
000002a0: fedb 2fbc fe6b d73b e5c7 0d3c 76b4 ca3b
000002b0: be80 69ba 163a 1dba 3ed1 a03c afe2 073c
000002c0: 4da4 45bb dbdc f73b fe3e 803c cb07 543b
000002d0: cb3b 513b 683f f63b 22ac c83c 22aa 693c
000002e0: 41fb 9ebc fd5f e43b 77c4 91bc e357 c73c
000002f0: ceba 9cbc cdf3 03bd 627a 85bb b716 063b
00000300: 19ea a03c 35bc 4fbc f88f d139 173d 3cbc
00000310: 5a99 e7bc 2eef 49bc 9b6d 84bc 1079 983c
00000320: 9038 edbb da7b bebb 47eb a2bc 554d 8f3c
00000330: cf9e 773c 47bd 72bc e2fc 973c 1afa d5bc
00000340: 5fe2 bfbc ae7e e2bc 9708 4dbc 4121 f3bb
00000350: 66fe 503c 2426 903b b2b4 5b3b 9e47 6f3c
00000360: 2019 4cbb ce2f ea3b 9c94 9abc b503 c6bc
00000370: 0a74 323c 844a 72bc 543d 3b3c 9958 c1bc
00000380: aa8e 99bc b1a2 88bc baa5 9abc 0449 993c
00000390: 30ed ca3b 0759 9cbc fb1b 79bb 19ba cdbc
000003a0: b919 8dbc f85c 7abc 70ef 83bc a51e 413c
000003b0: aa1b 8e3b 75c9 713c 996b a3bb 3428 3e3c
000003c0: 78d7 47bc ab23 1fbb 5661 b9bc a6ba 093c
000003d0: 007d 9cbc 8028 bdbc f6a7 c5bb 6ebd 963b
000003e0: a63e 82bc 95e4 2a3c 5931 98bc e59c 943c
000003f0: c2b9 8fbb d984 6ebc 1da2 a63c cbe4 c93b
0.0011335525 -0.0074823885 -0.009715392 -0.022994397 -0.00015001211 0.017882805 0.010059901 0.008821592
-0.009670302 -0.00891527 0.021139024 0.0075845965 -0.015760753 -0.019804183 0.017993715 0.02031044
0.0056402283 0.01809165 0.017893964 -0.0019651584 -0.000316076 0.017971572 0.020120086 0.022052394
-0.012986589 0.021175774 0.00756084 -0.02558767 -0.016157057 0.01490544 -0.0013658223 -0.019408576
0.01640621 -0.026130473 -0.0036714491 0.011709454 -0.025648663 -0.025657462 -0.008115787 0.00093102234
0.018516779 -0.02428746 -0.0016941791 0.017133972 -0.009009706 -0.023078067 0.010374343 -0.004828118
0.02139779 -0.021736056 -0.023893876 0.00054180453 -0.009831781 -0.018121442 0.017592814 0.018620882
-0.00018544083 -0.019055877 -0.026415192 -0.00058003195 0.007549716 -0.011155944 0.014768219 -0.011087811
-0.00603221 -0.016335936 -0.0007488355 -0.017710263 0.010413725 0.010900975 0.017622737 -0.009026
-0.014656897 -0.027449261 -0.017425679 0.018572284 0.010106506 -0.028097052 0.01715873 -0.023831263
-0.007037964 -0.012221253 -0.0033648598 0.00019671925 -0.02221809 0.010790145 -0.0077766236 -0.003561982
-0.019248933 -0.02339035 0.0009568299 0.01265563 -0.014559069 0.015474892 0.0025815172 -0.011714805
0.0033849278 0.0042862818 -0.021785345 -0.016864266 0.008607877 -0.017362392 -0.029126424 -0.007828477
-0.014412429 0.01557036 -0.026990622 -0.029703123 -0.020682722 0.009399867 -0.014227448 0.015508804
-0.002988493 -0.011959301 -0.0035998404 0.00534453 -0.0028963345 0.012080032 -0.022099078 0.0058637406
-0.009482528 -0.012459714 -0.0076377173 -0.012408386 0.0015934396 0.011666398 0.005772673 0.0026982853
0.0059730504 -0.01567033 -0.009367138 0.013016626 -0.027816443 -0.016721487 0.015262148 -0.02189527
-0.0088487 0.018326575 -0.01805512 -0.020776551 -0.0032239875 0.019395016 0.0045963502 -0.0039691436
0.013039138 -0.022883762 0.0104766525 -0.0069833025 -0.00018650727 -0.010218441 -0.011629876 -0.0008877937
0.02001836 0.029845562 -0.0052348212 0.007944116 0.00010226737 -0.002295704 0.020563142 -0.012992188
0.0062687974 -0.011177795 -0.008662184 0.020658394 -0.01814831 -0.014159179 0.028555902 0.018747853
-0.010733603 0.006574153 0.008653616 0.0061860634 -0.0008907429 -0.000599773 0.019631024 0.008293792
-0.0030157745 0.00756417 0.015655037 0.0032353278 0.0031926509 0.007514883 0.024496142 0.014261754
-0.019406917 0.0069694505 -0.017793877 0.0243339 -0.019132044 -0.03221493 -0.004073427 0.0020460316
0.019642876 -0.012679149 0.00039970852 -0.011489174 -0.028271366 -0.012325091 -0.016165545 0.018612415
-0.007239409 -0.005813104 -0.01988758 0.01749293 0.0151135465 -0.014815635 0.018553201 -0.026120234
-0.023423372 -0.027648296 -0.012514255 -0.0074197357 0.012755966 0.004399078 0.003352445 0.014604477
-0.0031142905 0.007146812 -0.01886969 -0.02417169 0.010891924 -0.014788274 0.011428196 -0.023601817
-0.018744785 -0.01667914 -0.018877853 0.018711574 0.0061928257 -0.01908542 -0.0038011062 -0.025113152
-0.01722418 -0.015280955 -0.016105384 0.011787091 0.004336794 0.014757504 -0.004987192 0.011606265
-0.012197368 -0.0024282734 -0.022629421 0.008406317 -0.019102573 -0.023090601 -0.0060319854 0.0046002185
-0.015899014 0.010430475 -0.018578218 0.01814122 -0.0043861577 -0.014558041 0.020340974 0.0061613075

column1.8.bias f4 [16]
00000000: c9d8 143c 197b aabc 47b1 6cbc 6e83 843b
00000010: e905 52bc 003b cf3b f343 833a d8ef 933c
00000020: d24f ed3b b3cf 5ebc 3d05 71bb c1f2 f1bb
00000030: db30 103c fa96 c6bc a245 beba d92a 813c
0.009084889 -0.02081065 -0.014446563 0.004043988 -0.012818792 0.006324172 0.0010014757 0.018058702
0.0072421813 -0.013599324 -0.0036776804 -0.007383675 0.008800711 -0.024241913 -0.0014516602 0.015767502

column1.10.weight f4 [8, 16, 7, 7]
00000000: a71c 4dbc afc1 1b3c 2164 213b 0ff2 b2bc
00000010: d752 3f3c c42d fd3c 3df2 9cba 64f8 18bd
00000020: 1d60 e83c b93c eabc 8469 f9bc 779d 15bd
00000030: c60e 373c 9fce 6b39 6906 0e3c 9677 afbc
00000040: 9f26 8dbc 88f8 443c 8cb2 ff3c 3c85 39bc
00000050: 9aa5 22bc 77e2 99ba 0c0b 0ebd 52c5 a83c
00000060: f523 e13b 7518 ab3c 3e22 1abc dfa1 fe3c
00000070: 099c 9039 b6a6 12bd 0fd5 593c 739d 6cbb
00000080: dc7f 1ebd ffe0 653b 645f 953c d66e 8e3c
00000090: 5493 d03c ca8f d1bc 6437 89bc 6e80 273c
000000a0: 2517 f93b 6658 963c 7b55 81bc c774 a7bc
000000b0: 4ef0 b33c 8570 253c b296 19bd 3d02 84bc
000000c0: cb89 22bb 8c04 b0bc 470d a73c 00d8 e93c
000000d0: 05d4 9d3c cdff 053b ce3f d5bb 4304 8abc
000000e0: fe29 5d3c 2a5d aebc 7407 243c f00c 2abc
000000f0: a823 293d 6488 f43c d472 4f3c 856f 9cbc
00000100: 5a80 65bb 56b1 863c 002d 093a 9ba6 4e3c
00000110: 0cbd f2bc 4a90 253d 5557 a13c 61ad 0a3d
00000120: 94ff 5fbc d47e 2cbc 4a2e 8cbc 01b3 8b3c
00000130: a87f 3bbb 8c89 1f3d dd7d 7dbc 006a ea3c
00000140: 63a7 523c db78 1f3d 5efa 9e3c d029 893c
00000150: 803f b0bc a7c1 223b 80e0 8cb9 cffb 4dbc
00000160: b61f 233d 40f0 ee3c 5a06 d63c 3811 88bc
00000170: 0ad7 8ebb bb5c 113c 4e58 31bc e3ef 013d
00000180: 0666 98bb 0fa3 e13c d350 b7bc 3178 4f3c
00000190: a313 4ebc 3854 95bc a00c cabc e9e0 943c
000001a0: db0c d93c c955 80bc b0f4 22bb 3c8a d73c
000001b0: 6211 983b 8487 ecbc 8b45 8ebb 0661 0ebd
000001c0: 43d1 fabb 038a 9bbb 741f a23c d223 df3c
000001d0: fb77 5eba 06bf e23c e46b b9bc 1b76 0f3c
000001e0: a0ca 83bc bd6e 493c 2704 e4bc a2fa b23c
000001f0: 3e18 e9bc b446 abbb cd82 a9bc a64d c7bc
00000200: 3a49 16bd a5c6 f03c 9674 e83c 3133 b6bb
00000210: 73d9 a2bc 8e5c 1dbc 4faa 433c 707f 06bc
00000220: e1a4 02bd 5ab7 513c 4ec8 573c 8548 6fbc
00000230: 862e 24bd 993d 48bc 8ecf 803c ebdc a43c
00000240: a87f 17bd 6ec4 4e3b ef3c 03bd 69a9 e1bc
00000250: 7e42 923c 1aae aabb 07b6 1b3c 63a4 b9bc
00000260: f32c c93c b367 e6bc 4acc 6ebc 6dea 6b3c
00000270: 4ee4 d13c 8580 893c 2ae4 7f3c 5f26 3c3c
00000280: 4700 6cbb 1539 17bd 77dc 04bd 6f59 24bd
00000290: 0f3d a13c cecf 3d3b 3032 5ebb 091c e0ba
000002a0: aacb 673c 5a1b 67bc ae03 d73c bdf9 0dbd
000002b0: b299 1abd 1cec d4bb e801 4ebc bf84 c63c
000002c0: 0257 aa3b 9158 05bd cbe9 14bd 0994 d93a
000002d0: 91e2 af3c b268 48bc 7e61 e63c a291 28bd
000002e0: 0067 e5bc 1202 8d3c c72f 27bd eba4 93bc
000002f0: b642 18bd 75d8 ccbc fea2 67bc dc9a 19bd
00000300: 3098 28bc 8697 823c f369 45bc 9b87 40bb
00000310: 492f 0d3b 6cc4 513b b2a2 12bc cc57 18bb
00000320: 99c0 db3b c180 293d dc93 dbbb a3a3 c33c
00000330: b625 96bb 3a6b cc3c 7054 633b 424d 85bc
00000340: 1336 47bc 5b2d 593c 2a57 f93b 7e78 7fbc
00000350: 9656 e3bc cef9 f03c 32db 88bc a417 92bc
00000360: 49fa df3c 5e8d 50bc f803 1bbd 2296 1dbd
00000370: c884 ff3c 7770 88bc bbe7 023d f89a 07bd
00000380: f46d 5a3c e922 10bc 184e d9bc 3844 d2ba
00000390: 481c 8b3c c5b9 fd3c 80c8 9abc 7a26 e2bc
000003a0: a517 43bc 7e42 9ebc 124c 48bc a7df 253d
000003b0: 9ab4 ff3b f122 7c38 3809 a6bc a06a 893a
000003c0: c52f e73b fbaf 133d a719 0cbc a669 9e3c
000003d0: e2ec 093c 40d9 cf3c eeac 02bd 400f bf3b
000003e0: 35f2 7e3c 10a1 713b 7287 053d 23cf cfbc
000003f0: 6041 31bc 202c 7d3b 90e3 e83b d6bc 023d
-0.012519038 0.009506627 0.0024626332 -0.021843938 0.011677465 0.030905612 -0.0011974048 -0.03734626
0.028366143 -0.028593408 -0.030445822 -0.036527123 0.011172956 0.00022488319 0.0086685205 -0.021419328
-0.01723033 0.012022145 0.031213067 -0.011323269 -0.009927178 -0.0011740465 -0.034678504 0.020601902
0.0068707415 0.020885685 -0.009407578 0.031083046 0.00027582076 -0.03580352 0.013295426 -0.003610459
-0.038696155 0.0035076735 0.018233962 0.017386835 0.025460877 -0.02558126 -0.016750045 0.010223491
0.007601636 0.018352699 -0.01578783 -0.020441426 0.021965172 0.0100976275 -0.03749723 -0.016114349
-0.002480137 -0.021486543 0.020392073 0.02854538 0.019266138 0.0020446659 -0.0065078503 -0.016847735
0.013498781 -0.021284658 0.010011543 -0.010379061 0.04129377 0.029850192 0.0126616545 -0.019096145
-0.003501913 0.016441982 0.0005232841 0.012612964 -0.02963116 0.040420808 0.019694963 0.033856753
-0.013671774 -0.010528285 -0.017111916 0.01705313 -0.0028610025 0.038949534 -0.015471903 0.028614998
0.012857291 0.038933616 0.019406494 0.01674357 -0.021514654 0.0024834664 -0.00026870146 -0.012572243
0.039825164 0.029167295 0.026126076 -0.016609773 -0.0043591307 0.008872206 -0.010824276 0.031722914
-0.004650834 0.027543573 -0.022377407 0.012662933 -0.012577924 -0.018228635 -0.024664223 0.018173652
0.026495388 -0.015665906 -0.0024865083 0.026311032 0.004640744 -0.028873213 -0.0043417863 -0.034760498
-0.0076543405 -0.004746677 0.019790389 0.02723876 -0.00084865064 0.027678978 -0.022634454 0.008756186
-0.01608783 0.0122944685 -0.027834011 0.021848027 -0.028453942 -0.0052269343 -0.020692253 -0.024329018
-0.036690928 0.029391596 0.028375905 -0.0055603017 -0.019879078 -0.009604586 0.01194246 -0.008209094
-0.031895522 0.012800062 0.013170315 -0.014604692 -0.04008343 -0.012221717 0.01572397 0.020124873
-0.036986977 0.0031550187 -0.032040533 -0.027546601 0.017853972 -0.005208743 0.009503848 -0.022661394
0.024557566 -0.02812562 -0.0145750735 0.014399153 0.02562156 0.016784916 0.015618363 0.011483758
-0.0036010907 -0.036919672 -0.032436814 -0.040124353 0.019682435 0.0028962973 -0.0033904426 -0.0017098199
0.014147678 -0.014105642 0.026246872 -0.034661997 -0.03774423 -0.006497873 -0.012573697 0.02423322
0.0051983604 -0.032555167 -0.036355775 0.0016599904 0.02147034 -0.012231993 0.02812266 -0.04115451
-0.028003216 0.017212901 -0.04081705 -0.018022975 -0.037172996 -0.025005559 -0.014137981 -0.0375012
-0.010290191 0.015941393 -0.012049186 -0.0029377702 0.0021543077 0.0032007946 -0.008949922 -0.002324569
0.006706309 0.041382555 -0.006700976 0.023881739 -0.004582132 0.024953473 0.003468778 -0.016272191
-0.012158888 0.0132554425 0.0076092677 -0.015592692 -0.027751248 0.029415991 -0.016706083 -0.017833538
0.027341025 -0.012729017 -0.03784558 -0.038473256 0.031191245 -0.01665519 0.031959277 -0.033106774
0.013331879 -0.008797386 -0.026526496 -0.0016042059 0.016981259 0.03097237 -0.018894434 -0.027606238
-0.011907493 -0.019318815 -0.012225168 0.040496495 0.007803512 6.0114024e-05 -0.020268068 0.0010484047
0.007055255 0.0360565 -0.008551038 0.019337486 0.008418294 0.025372148 -0.0319032 0.0058306754
0.015560676 0.0036869682 0.032599874 -0.025367325 -0.010818809 0.0038631037 0.0071072057 0.03191837

column1.10.bias f4 [8]
00000000: ce62 b0bc 9331 58b3 9fbe a93c f332 ddbc
00000010: 240f 573b 11f3 fabc 80f1 20bc c1ee ceba
-0.021531489 -5.0336507e-08 0.020720778 -0.027001834 0.003281542 -0.030633481 -0.009823203 -0.0015787707

column2.0.weight f4 [10, 3, 7, 7]
00000000: 00b6 7b3d b7aa 723d dbdb 3fbd b2c0 223d
00000010: 26dc 9dbc b133 de3c 67f6 d5b9 26eb 623d
00000020: 4961 aebd aabf 983d e81e 693d 5d2a 7bbd
00000030: 0114 0fbd 304c 983d 1666 cb3c aa1f b239
00000040: a0b3 c0bc b38b c73c 51a3 923d 1fbe 613d
00000050: 6657 71bb 53b3 5c3d 4e64 d2bb c25f 38bd
00000060: 2aa1 9bbd 3b4f a7bd 11e2 b43b af64 693d
00000070: afe7 e53c 534d 85bd 3ab9 f7ba 46ec 033c
00000080: 247e 5fbd 3de4 1dbd b617 eabc efa3 4bbc
00000090: a6dd dd3c 9dfe 7ebd 3e9e 70bd a962 763d
000000a0: fe85 85bd a266 5c3b 86e6 0d3d db11 9e3d
000000b0: df7e 28bd cfde e7bc 437a 8ebd ea36 863d
000000c0: 9147 88bd 7bf3 4b3d 8ca5 91bd dab9 41bd
000000d0: e51c 93bd 4057 39bd 168d b13c df20 97bd
000000e0: 64b1 4ebd b0ad 1b3d b0cf 8bbd 69f6 76bd
000000f0: 908c 9b39 cb4e f5bc 60ed 5b3c 0995 843d
00000100: dcc3 17bd 4eff c6bc d409 4b3d 3c80 a0bd
00000110: ca59 eebc dd28 1f3d 8ac3 523d 03cf 433c
00000120: b3b1 5cbd dc7a 83bd f8e3 69bd 19d2 343c
00000130: c21c 3c3d 528f 043d 81db 3c3d e1e3 153d
00000140: d7b0 07bc 9771 edbc ec9f 9a3d 4945 02bd
00000150: effe cc3a a35e 13bd 58b7 00bd bad5 a6bd
00000160: 937c bcbc 3b29 99bc d96e f7bb b3ed 753b
00000170: 6404 4b3d dc3b 873a 3497 9bbd 0de4 90bc
00000180: dabd 98bd f20e 823c f6d8 e73c 7420 97bd
00000190: f46c 1c3d d2ed a9bb d068 953d f351 593c
000001a0: ea86 833d d70c 49bc 0503 263d 669e adbc
000001b0: 24bd 863d fef2 60bd e681 053d 37be f4bc
000001c0: d385 5cbd 47a1 45bb f324 ecbb acd8 073d
000001d0: 16ae 6d3d d219 e83c 4809 983d b0d0 363d
000001e0: 347d 69bd dcfc 533d 9f2a 873c 6ce0 443c
000001f0: 70bd 80bd 6acb 7d3d df8d a6bd 3e23 b6bc
00000200: 978c 99bd 3362 c9bc 9330 fcbc e9a8 adbd
00000210: c49e 913d 32c4 53bd 51b9 11bd 9f5f 61bd
00000220: 16f5 193c ac2c 7cbd 2854 293d 7432 aebd
00000230: 1906 8e3d 2da5 85bd 4387 5dbd a478 6c3d
00000240: 9b90 adbc 0fb3 7d3d d5c6 8ebc a165 86bd
00000250: e3d7 babd ffba a43c 3e83 b0bd c723 623c
00000260: fa2e dbbd 669f 8cbd 1e93 afbd 6a0b abbd
00000270: 5127 98bd 3626 02bc afe5 b8bd 7997 813c
00000280: 19ed 57bc c188 cbbc e1e1 1f3d 5417 ea3c
00000290: 15be 5fbd 84e0 51bd 390d 013d 7099 063d
000002a0: 2eaf 783d b7d0 543d fece 013d 2d90 993c
000002b0: a654 083d 25f1 3dbc cd34 5f3c 4071 07bd
000002c0: 041a 533d 74bd 4c3d 921d cd3c badf a3bc
000002d0: 051a 653d b4da 81bd 0e96 403d 48e0 30ba
000002e0: 4b8c 213d ad85 93bd 19d6 3e3d a23b a4bd
000002f0: a8b1 6abd 8ca5 f63c e54a 83bb 57ce 873c
00000300: 11e6 893d 903f c6bb 93f5 7d3d 6675 8b3d
00000310: 05c7 92bc b6bc fbbc 52ff 083d 5303 a2bd
00000320: 4fe4 7e3d f984 b0bd 762c c9bd 1ad8 9cbd
00000330: 3e42 dcbc 0f3f 9bbd 32b6 d93c 4990 bbbd
00000340: c19d 153d b30b 273c 3d9e 243c 6876 ccbd
00000350: bc67 21bb b023 4ebd c5cc e23b 52dd b5bd
00000360: 98ae 0e3d e86a 15bc 4399 88bd dae5 8e3c
00000370: c836 063c ef61 4c3c 7e17 cabd 6254 74bb
00000380: 3a99 cdbd eb47 3d3d b8e1 b4bd aa79 c1bd
00000390: 0636 a8bd 7e0a 83bd fc32 5c3c 5389 b6bd
000003a0: e828 483c 3be3 3cbd 7032 46bc 9038 443d
000003b0: 0bc3 d9ba 6327 c43c d839 cebd 2b2f 8bbd
000003c0: f04d ee3c 9be0 98bd c07c c43b ce10 d9bc
000003d0: fef2 3a3c 072e 21bd 9d9b bbbd bf8b 943c
000003e0: 085f debc 9b35 c7bd a8d2 a6bc 51b6 9ebd
000003f0: 773e d53c c4a4 b7bd e914 43bd 48c5 55bd
0.061452866 0.059244838 -0.04684053 0.03973455 -0.019270014 0.027124258 -0.0004081011 0.055400036
-0.085146494 0.07458432 0.05691424 -0.061319698 -0.034931187 0.074364066 0.024828952 0.00033974397
-0.023523152 0.024358606 0.071600564 0.055112954 -0.0036825775 0.053881954 -0.0064206487 -0.045013197
-0.07599099 -0.08169409 0.0055201133 0.056980785 0.028064577 -0.06508889 -0.0018899806 0.008051937
-0.054563656 -0.038547743 -0.02857576 -0.0124292215 0.02708323 -0.062254537 -0.05874466 0.060152683
-0.065196976 0.003363051 0.034643672 0.077182494 -0.04113662 -0.028304486 -0.06956913 0.06553443
-0.06654275 0.049792748 -0.07111654 -0.047296382 -0.071832456 -0.045249224 0.02167372 -0.073793165
-0.05046214 0.03800744 -0.068267226 -0.06029359 0.0002966863 -0.029944798 0.013423294 0.06473739
-0.03705202 -0.02429166 0.04956992 -0.07836959 -0.02909555 0.03885733 0.05145601 0.011951211
-0.053880405 -0.06419918 -0.057102174 0.011036419 0.045925863 0.032363243 0.046107773 0.036594275
-0.008281908 -0.028984828 0.07550034 -0.031804357 0.0015639941 -0.035978924 -0.03142485 -0.08146234
-0.02300862 -0.018696418 -0.007551056 0.0037525713 0.049564734 0.0010317522 -0.07597199 -0.017686868
-0.07458086 0.015876267 0.028301697 -0.07379237 0.038189843 -0.005185821 0.07295382 0.013264167
0.06422217 -0.012271128 0.040530223 -0.021193694 0.065790445 -0.054919235 0.032594584 -0.029875858
-0.053838562 -0.0030155943 -0.007206553 0.03316562 0.05802735 0.028332625 0.07423645 0.044632614
-0.05700417 0.051754817 0.016499816 0.012016397 -0.06286132 0.06196157 -0.081325285 -0.022233602
-0.074975185 -0.024582958 -0.03078488 -0.08479483 0.0711036 -0.05170078 -0.035577122 -0.055022832
0.009396812 -0.06156604 0.041340023 -0.08505717 0.06934757 -0.065256454 -0.054084074 0.05773224
-0.021187117 0.06193834 -0.017428795 -0.06562353 -0.091232084 0.020108698 -0.086187825 0.013802475
-0.107023194 -0.0686634 -0.08572982 -0.083517864 -0.07429374 -0.0079436805 -0.09028184 0.015819298
-0.013179087 -0.024845483 0.039033774 0.028575577 -0.054624636 -0.051239505 0.03150675 0.032861173
0.06071394 0.05195686 0.031691544 0.018745506 0.033283852 -0.011593138 0.0136234285 -0.033066988
0.051538482 0.049985364 0.025038514 -0.020004142 0.055933017 -0.063405424 0.047018103 -0.00067472877
0.039440434 -0.07203231 0.0465909 -0.080191866 -0.057298332 0.030108236 -0.004006731 0.016577883
0.06733335 -0.0060500577 0.062001776 0.06809501 -0.017917166 -0.030729633 0.033446617 -0.0791079
0.06222945 -0.086191125 -0.098229334 -0.076584056 -0.026887055 -0.07580387 0.026576135 -0.091583796
0.0365274 0.01019566 0.010047493 -0.09983522 -0.002462848 -0.050327003 0.006921383 -0.08880104
0.034834474 -0.009119727 -0.06669857 0.017443586 0.008191772 0.012474521 -0.09867762 -0.0037281741
-0.10038991 0.046211164 -0.08832115 -0.09447034 -0.08213429 -0.063984856 0.01343989 -0.08912911
0.012216784 -0.04611514 -0.012096986 0.047905505 -0.0016613913 0.023944562 -0.100696266 -0.06796106
0.029089898 -0.07464715 0.0059963167 -0.02649727 0.011410473 -0.039350536 -0.0916054 0.018133042
-0.027144924 -0.09727021 -0.02036412 -0.07749618 0.026030762 -0.089669734 -0.047627363 -0.052190095

column2.0.bias f4 [10]
00000000: 02cf 29bc 47aa 0ebd da3e 2d3d c081 80bd
00000010: bba0 64bd f26b 46bc e518 afbc 0109 babd
00000020: e8aa 2e3d 96ae fdbc
-0.010364296 -0.034830358 0.042296268 -0.06274748 -0.055817347 -0.012110697 -0.021374175 -0.090837486
0.042643458 -0.030967038

column2.3.weight f4 [20, 10, 5, 5]
00000000: 50e8 03bd df75 96bd 30f8 6cbd a886 16bd
00000010: 2bf4 dcbc 73f4 f33c 1659 953c c2d2 3abc
00000020: 514b 64bd d332 103d cff5 8d3c 7dc3 05bd
00000030: 0789 53bd 9c0c a03c ac81 2c3d f8bb bebc
00000040: 7cf3 fc3c 1653 3b3c caec 3fbc dbeb d53c
00000050: 9c17 9f3c 999b 80bc 4570 8cbd f220 6dba
00000060: f70e b0bc 3d05 22bd ca12 863c 01ea 87bc
00000070: a37f 81bd 43c0 cfbc 0713 843c c3de 50bd
00000080: d14f ffbc dac4 473c 1f84 4dbd 1287 09bd
00000090: 666d af3b fba1 7bbb 548f efbc cef9 36bd
000000a0: 8a26 bebc c7e1 563c 031b 93bd 6539 2cbd
000000b0: 8dae 6dbd aaed 98bd ba14 62bd 3a5e 863c
000000c0: 8d63 47bc b9a9 1c3c 8369 973c eb7d a23b
000000d0: c335 203b 0dff 4a3d fba5 7cbd 7124 8abd
000000e0: eca3 71bd 119e 48bd 7bbc ee3c dd85 84bd
000000f0: eec7 22bd 5a2a da39 3d9f 7cbd 60d8 523d
00000100: 03f1 d4bc dc55 46bd 4934 f03b de8d 163d
00000110: 7ab9 afbb aa51 28bd 78c5 f63b 7b4d 5abd
00000120: 6dde 483d cee7 533c c1ec bc3c 6bb7 53bd
00000130: fc7e 233d 94cf 3cbc dfb5 343d a877 403c
00000140: 74c3 4cbd ad2f 243c 1a53 c1bc 7063 873b
00000150: fc93 edba dee4 4ebd bdcf 3dbc b05c b63c
00000160: 367a eabc 21fe e7bc c22e bcbc 7b21 1bbd
00000170: 4837 5bbc aacd 89bd 7119 94bc 4680 423d
00000180: df87 653d f8ff 8dbc 1ded e33c 9a53 d1bc
00000190: 32b0 9d3d d62f a73c 91c8 a23d 2b08 3c3d
000001a0: 7ae1 843c ebaa 3d3d c0b9 a2bc 5e3f 23bd
000001b0: ee38 443d 716a 8ebc 1857 9f3d 1dcb e7bb
000001c0: f158 37bd 3080 3bbc 0651 3c3c ddec 993d
000001d0: 9761 54ba e11a 3e3d d7bd 07bd dc23 553d
000001e0: 8168 07bd 9e11 903d 759a a93d 611e 693d
000001f0: 025d 4e3d 53f0 133d 78a1 0dbc bddf 0cbd
00000200: c358 2a3d 67f3 9d3c 860f 403d b9a3 71bd
00000210: 5910 7d3d 733b be3c 771e 69bc c25e 23bd
00000220: 7a7a aabb b103 1b3d 44e6 9b3c 5405 4d3d
00000230: e878 c9bb d032 03bd cdb7 16bd f380 fc3b
00000240: 20e0 4f3c d8fe b3bc 6bbb 54bd cb3c 32bd
00000250: ad02 4fbd d8c1 b8bb f0d7 3abd d610 73bd
00000260: ae99 3b3d 14e6 49bc b610 6abc 9718 333c
00000270: 5be4 9fbc 4eed eb3c bde7 8abd 9c0d a63c
00000280: 6320 e2bc ae82 e63c 0ae8 643d e385 5b3d
00000290: d484 bbbc 1536 e33c 8bf7 0a3d 0830 413d
000002a0: b54d 66bc 6e9d 25bd 46c9 e73c 33a0 e33b
000002b0: 0f67 c33b 20e4 bf3c ab62 42bc 317e 103d
000002c0: 6171 883c 2df9 bfbc 7950 58bd 42d9 cb3c
000002d0: f077 403c 05da c439 3558 043c a1ff 8cbd
000002e0: 3aa3 103d ff57 df3c 995c d43c 48f3 36bd
000002f0: dcdb 6f3c e080 a43c 67c8 f33c c465 193d
00000300: c4a2 97bd bcd9 56ba 8348 89bd 2ad7 23bc
00000310: 2744 3f3d db99 4f3b 021e 363d f5fe 193d
00000320: 5151 493d 7e4c 143d 3b4e 6abc ea97 ca3c
00000330: 1dfa e83b eef4 cdbc afbd e6bc c563 09bb
00000340: 1230 b73a a074 01bc 2368 2abc 3936 3ebc
00000350: 3d9f 53bc a54a 803d 4a3c 3a3d cc4f ccbc
00000360: 14b5 16bd 09c3 a63c 6097 903c 4eb8 0a3d
00000370: ff80 c53b 807c 71bd 1a6d 41bd 8c2e 3f3d
00000380: 6026 333d afde 573d ed0a e23b 7eb1 ef3c
00000390: 0073 8bbc ad28 353d 8181 de3c 6a15 8e3b
000003a0: 0a64 c0bc f89b aa3c f5a6 80bd da54 9abc
000003b0: be9d 53bd 1724 df3c 2369 a4bc 81e9 16bd
000003c0: db30 5cbd 035a 4bbd 1a53 81bd f947 f3bc
000003d0: 944e 3a3d cde2 663d 8c52 16bd 724b 383d
000003e0: 3286 293b dc73 0c3d d8b1 2bbd 606b e03c
000003f0: 4878 fa3c b19b ef3b 0780 323a 1bf8 853c
-0.032203972 -0.07346701 -0.057853878 -0.036749512 -0.026971897 0.029779648 0.018230956 -0.011402788
-0.05573589 0.03520472 0.017329125 -0.032657135 -0.05164435 0.019537263 0.042115852 -0.02328299
0.030877821 0.011433383 -0.01171417 0.026113441 0.019420438 -0.015699195 -0.06857351 -0.0009045742
-0.02149151 -0.039555777 0.016366381 -0.016591074 -0.06323173 -0.025360232 0.016122354 -0.050993692
-0.03116599 0.012192929 -0.05017483 -0.03357608 0.0053536175 -0.0038396108 -0.029243149 -0.044671826
-0.023211736 0.013115353 -0.071828865 -0.042046923 -0.058027793 -0.07467206 -0.055195548 0.016402353
-0.012169731 0.009561949 0.01848293 0.0049588582 0.0024446107 0.04955964 -0.06168173 -0.06745232
-0.05899422 -0.04897887 0.029142609 -0.06470845 -0.03974145 0.00041611755 -0.0616753 0.051475883
-0.02599383 -0.048421726 0.0073304516 0.03675639 -0.0053626867 -0.041093506 0.0075308643 -0.053296547
0.049040247 0.0129336845 0.023062112 -0.051688593 0.039916024 -0.0115241 0.04411876 0.011747278
-0.049991086 0.010021132 -0.023599196 0.004131727 -0.0018125768 -0.050511234 -0.011585173 0.022260994
-0.028622728 -0.02831942 -0.022971515 -0.037873726 -0.013379879 -0.067286804 -0.018078538 0.047485612
0.05603778 -0.01733397 0.027823025 -0.02555256 0.07699622 0.020408552 0.07948411 0.045906227
0.016220797 0.04630558 -0.019863963 -0.039855354 0.047905855 -0.01738474 0.07780284 -0.0070737735
-0.044762556 -0.0114441365 0.011493927 0.07515881 -0.00081017 0.046412352 -0.03314003 0.05203615
-0.033058647 0.0703461 0.082814135 0.056913737 0.050381668 0.036117863 -0.008644454 -0.03439306
0.041588556 0.019281102 0.046889804 -0.05899403 0.06178317 0.023221707 -0.014228455 -0.03988529
-0.0052025886 0.037845317 0.019030698 0.05005391 -0.0061484464 -0.03203088 -0.03679638 0.0077058016
0.012687713 -0.021972105 -0.05193655 -0.043515008 -0.05053966 -0.0056383424 -0.04561609 -0.059342228
0.045800857 -0.012322921 -0.014286211 0.010931156 -0.019518068 0.02879968 -0.06782482 0.020270161
-0.027603334 0.028138485 0.055885352 0.05359448 -0.022890486 0.02773575 0.03392748 0.047164947
-0.014056613 -0.04043334 0.028294217 0.0069465875 0.0059632133 0.023424208 -0.011864345 0.035276596
0.016655626 -0.023434246 -0.05281112 0.02488387 0.011747345 0.0003754647 0.008077671 -0.06884695
0.035311915 0.02726364 0.02592306 -0.044665605 0.014639821 0.020080984 0.029758645 0.037450567
-0.07404092 -0.0008195897 -0.06703284 -0.01000003 0.046695855 0.0031677398 0.04446221 0.03759666
0.049149815 0.03620576 -0.014300878 0.024730641 0.007109894 -0.025141206 -0.02816662 -0.0020964008
0.0013976118 -0.007901341 -0.010400805 -0.011609607 -0.012916383 0.06264237 0.045467652 -0.024940394
-0.036793783 0.020356672 0.017650306 0.033867173 0.0060273404 -0.058956623 -0.047223188 0.04667525
0.04373777 0.052702602 0.006898275 0.02925944 -0.01702261 0.044228245 0.027161362 0.004336049
-0.023485202 0.020826325 -0.062818445 -0.018839289 -0.051664107 0.027238889 -0.020069664 -0.03684378
-0.05375753 -0.04964639 -0.063146785 -0.029697405 0.045485094 0.056368638 -0.036699817 0.044993825
0.002586734 0.03429018 -0.041917652 0.02739495 0.030574933 0.007312261 0.00068092387 0.016353657

column2.3.bias f4 [20]
00000000: c528 243d 22e8 363d 0b26 deb7 b128 71bc
00000010: 16ac 87bd e1ba 9bbc 6d62 4d3c ed18 e23b
00000020: 8f51 093c d781 333d 5eff 0d3d 8080 59bb
00000030: 87b4 75bd 3020 e0bb a6db 923c 5908 7bbd
00000040: a717 f0bc 1c47 d13c c37f 8fbd c87d 86bd
0.040077943 0.044654973 -2.6482177e-05 -0.014719174 -0.0662462 -0.01901001 0.012535674 0.006899944
0.0083812615 0.043824997 0.034667365 -0.0033188164 -0.059986617 -0.0068397745 0.017927002 -0.061287258
-0.029308153 0.025546603 -0.070067905 -0.065669596
